…
hs=3.0, warmup_momentum=0.8, weight_decay=0.0005, workers=8, workspace=None
[34m[1mtrain:[0m /home/nurlykhan/Diploms/bottleDetect/data/raw/train... found 702 images in 4 classes ✅ 
[34m[1mval:[0m /home/nurlykhan/Diploms/bottleDetect/data/raw/valid... found 100 images in 4 classes ✅ 
[34m[1mtest:[0m /home/nurlykhan/Diploms/bottleDetect/data/raw/test... found 50 images in 4 classes ✅ 
Overriding model.yaml nc=1000 with nc=4

                   from  n    params  module                                       arguments                     
  0                  -1  1       464  ultralytics.nn.modules.conv.Conv             [3, 16, 3, 2]                 
  1                  -1  1      4672  ultralytics.nn.modules.conv.Conv             [16, 32, 3, 2]                
  2                  -1  1      7360  ultralytics.nn.modules.block.C2f             [32, 32, 1, True]             
  3                  -1  1     18560  ultralytics.nn.modules.conv.Conv             [32, 64, 3, 2]                
  4                  -1  2     49664  ultralytics.nn.modules.block.C2f             [64, 64, 2, True]             
  5                  -1  1     73984  ultralytics.nn.modules.conv.Conv             [64, 128, 3, 2]               
  6                  -1  2    197632  ultralytics.nn.modules.block.C2f             [128, 128, 2, True]           
  7                  -1  1    295424  ultralytics.nn.modules.conv.Conv             [128, 256, 3, 2]              
  8                  -1  1    460288  ultralytics.nn.modules.block.C2f             [256, 256, 1, True]           
  9                  -1  1    335364  ultralytics.nn.modules.head.Classify         [256, 4]                      
YOLOv8n-cls summary: 56 layers, 1,443,412 parameters, 1,443,412 gradients, 3.4 GFLOPs
Transferred 156/158 items from pretrained weights
[34m[1mAMP: [0mrunning Automatic Mixed Precision (AMP) checks...
[KDownloading https://github.com/ultralytics/assets/releases/download/v8.4.0/yolo26n.pt to 'yolo26n.pt': 1% ──────────── 40.0KB/5.3MB 115.1KB/s 0.1s<46.7s[KDownlo
…
hs=3.0, warmup_momentum=0.8, weight_decay=0.0005, workers=8, workspace=None
[34m[1mtrain:[0m /home/nurlykhan/Diploms/bottleDetect/data/raw/train... found 702 images in 4 classes ✅ 
[34m[1mval:[0m /home/nurlykhan/Diploms/bottleDetect/data/raw/valid... found 100 images in 4 classes ✅ 
[34m[1mtest:[0m /home/nurlykhan/Diploms/bottleDetect/data/raw/test... found 50 images in 4 classes ✅ 
Overriding model.yaml nc=1000 with nc=4

                   from  n    params  module                                       arguments                     
  0                  -1  1       928  ultralytics.nn.modules.conv.Conv             [3, 32, 3, 2]                 
  1                  -1  1     18560  ultralytics.nn.modules.conv.Conv             [32, 64, 3, 2]                
  2                  -1  1     29056  ultralytics.nn.modules.block.C2f             [64, 64, 1, True]             
  3                  -1  1     73984  ultralytics.nn.modules.conv.Conv             [64, 128, 3, 2]               
  4                  -1  2    197632  ultralytics.nn.modules.block.C2f             [128, 128, 2, True]           
  5                  -1  1    295424  ultralytics.nn.modules.conv.Conv             [128, 256, 3, 2]              
  6                  -1  2    788480  ultralytics.nn.modules.block.C2f             [256, 256, 2, True]           
  7                  -1  1   1180672  ultralytics.nn.modules.conv.Conv             [256, 512, 3, 2]              
  8                  -1  1   1838080  ultralytics.nn.modules.block.C2f             [512, 512, 1, True]           
  9                  -1  1    663044  ultralytics.nn.modules.head.Classify         [512, 4]                      
YOLOv8s-cls summary: 56 layers, 5,085,860 parameters, 5,085,860 gradients, 12.6 GFLOPs
Transferred 156/158 items from pretrained weights
[34m[1mAMP: [0mrunning Automatic Mixed Precision (AMP) checks...
[34m[1mAMP: [0mchecks passed ✅
[34m[1mtrain: [0mFast image access ✅ (ping: 0.0±0.0 ms, read: 1719.4±793.4 MB/s, size: 8.1 KB)
[K[34m[1mtrain: [0mScanning /home/nurlykhan/Diploms/bottleDetect/data/raw/train... 702 images, 0 corrupt: 100% ━━━━━━━━━━━━ 702/702 267.7Mit/s 0.0s
…
ochs=3.0, warmup_momentum=0.8, weight_decay=0.0005, workers=8, workspace=None
[34m[1mtrain:[0m /home/nurlykhan/Diploms/bottleDetect/data/raw/train... found 702 images in 4 classes ✅ 
[34m[1mval:[0m /home/nurlykhan/Diploms/bottleDetect/data/raw/valid... found 100 images in 4 classes ✅ 
[34m[1mtest:[0m /home/nurlykhan/Diploms/bottleDetect/data/raw/test... found 50 images in 4 classes ✅ 
Overriding model.yaml nc=80 with nc=4

                   from  n    params  module                                       arguments                     
  0                  -1  1       464  ultralytics.nn.modules.conv.Conv             [3, 16, 3, 2]                 
  1                  -1  1      4672  ultralytics.nn.modules.conv.Conv             [16, 32, 3, 2]                
  2                  -1  1      6640  ultralytics.nn.modules.block.C3k2            [32, 64, 1, False, 0.25]      
  3                  -1  1     36992  ultralytics.nn.modules.conv.Conv             [64, 64, 3, 2]                
  4                  -1  1     26080  ultralytics.nn.modules.block.C3k2            [64, 128, 1, False, 0.25]     
  5                  -1  1    147712  ultralytics.nn.modules.conv.Conv             [128, 128, 3, 2]              
  6                  -1  1     87040  ultralytics.nn.modules.block.C3k2            [128, 128, 1, True]           
  7                  -1  1    295424  ultralytics.nn.modules.conv.Conv             [128, 256, 3, 2]              
  8                  -1  1    346112  ultralytics.nn.modules.block.C3k2            [256, 256, 1, True]           
  9                  -1  1    249728  ultralytics.nn.modules.block.C2PSA           [256, 256, 1]                 
 10                  -1  1    335364  ultralytics.nn.modules.head.Classify         [256, 4]                      
YOLO11n-cls summary: 86 layers, 1,536,228 parameters, 1,536,228 gradients, 3.3 GFLOPs
Transferred 234/236 items from pretrained weights
[34m[1mAMP: [0mrunning Automatic Mixed Precision (AMP) checks...
[34m[1mAMP: [0mchecks passed ✅
[34m[1mtrain: [0mFast image access ✅ (ping: 0.0±0.0 ms, read: 1654.2±755.5 MB/s, size: 8.1 KB)
[K[34m[1mtrain: [0mScanning /home/nurlykhan/Diploms/bottleDetect/data/raw/train... 702 images, 0 corrupt: 100% ━━━━━━━━━━━━ 702/702 327.2Mit/s 0.0s
…
ochs=3.0, warmup_momentum=0.8, weight_decay=0.0005, workers=8, workspace=None
[34m[1mtrain:[0m /home/nurlykhan/Diploms/bottleDetect/data/raw/train... found 702 images in 4 classes ✅ 
[34m[1mval:[0m /home/nurlykhan/Diploms/bottleDetect/data/raw/valid... found 100 images in 4 classes ✅ 
[34m[1mtest:[0m /home/nurlykhan/Diploms/bottleDetect/data/raw/test... found 50 images in 4 classes ✅ 
Overriding model.yaml nc=80 with nc=4

                   from  n    params  module                                       arguments                     
  0                  -1  1       928  ultralytics.nn.modules.conv.Conv             [3, 32, 3, 2]                 
  1                  -1  1     18560  ultralytics.nn.modules.conv.Conv             [32, 64, 3, 2]                
  2                  -1  1     26080  ultralytics.nn.modules.block.C3k2            [64, 128, 1, False, 0.25]     
  3                  -1  1    147712  ultralytics.nn.modules.conv.Conv             [128, 128, 3, 2]              
  4                  -1  1    103360  ultralytics.nn.modules.block.C3k2            [128, 256, 1, False, 0.25]    
  5                  -1  1    590336  ultralytics.nn.modules.conv.Conv             [256, 256, 3, 2]              
  6                  -1  1    346112  ultralytics.nn.modules.block.C3k2            [256, 256, 1, True]           
  7                  -1  1   1180672  ultralytics.nn.modules.conv.Conv             [256, 512, 3, 2]              
  8                  -1  1   1380352  ultralytics.nn.modules.block.C3k2            [512, 512, 1, True]           
  9                  -1  1    990976  ultralytics.nn.modules.block.C2PSA           [512, 512, 1]                 
 10                  -1  1    663044  ultralytics.nn.modules.head.Classify         [512, 4]                      
YOLO11s-cls summary: 86 layers, 5,448,132 parameters, 5,448,132 gradients, 12.1 GFLOPs
Transferred 234/236 items from pretrained weights
[34m[1mAMP: [0mrunning Automatic Mixed Precision (AMP) checks...
[34m[1mAMP: [0mchecks passed ✅
[34m[1mtrain: [0mFast image access ✅ (ping: 0.0±0.0 ms, read: 1673.4±771.2 MB/s, size: 8.1 KB)
[K[34m[1mtrain: [0mScanning /home/nurlykhan/Diploms/bottleDetect/data/raw/train... 702 images, 0 corrupt: 100% ━━━━━━━━━━━━ 702/702 327.2Mit/s 0.0s
…
