…
, warmup_momentum=0.8, weight_decay=0.0005, workers=8, workspace=None
[34m[1mtrain:[0m /home/nurlykhan/Diploms/bottleDetect/data/raw/train... found 702 images in 4 classes вњ… 
[34m[1mval:[0m /home/nurlykhan/Diploms/bottleDetect/data/raw/valid... found 100 images in 4 classes вњ… 
[34m[1mtest:[0m /home/nurlykhan/Diploms/bottleDetect/data/raw/test... found 50 images in 4 classes вњ… 
Overriding model.yaml nc=1000 with nc=4

                   from  n    params  module                                       arguments                     
  0                  -1  1      1392  ultralytics.nn.modules.conv.Conv             [3, 48, 3, 2]                 
  1                  -1  1     41664  ultralytics.nn.modules.conv.Conv             [48, 96, 3, 2]                
  2                  -1  2    111360  ultralytics.nn.modules.block.C2f             [96, 96, 2, True]             
  3                  -1  1    166272  ultralytics.nn.modules.conv.Conv             [96, 192, 3, 2]               
  4                  -1  4    813312  ultralytics.nn.modules.block.C2f             [192, 192, 4, True]           
  5                  -1  1    664320  ultralytics.nn.modules.conv.Conv             [192, 384, 3, 2]              
  6                  -1  4   3248640  ultralytics.nn.modules.block.C2f             [384, 384, 4, True]           
  7                  -1  1   2655744  ultralytics.nn.modules.conv.Conv             [384, 768, 3, 2]              
  8                  -1  2   7084032  ultralytics.nn.modules.block.C2f             [768, 768, 2, True]           
  9                  -1  1    990724  ultralytics.nn.modules.head.Classify         [768, 4]                      
YOLOv8m-cls summary: 80 layers, 15,777,460 parameters, 15,777,460 gradients, 41.9 GFLOPs
Transferred 228/230 items from pretrained weights
[34m[1mAMP: [0mrunning Automatic Mixed Precision (AMP) checks...
[34m[1mAMP: [0mchecks passed вњ…
[34m[1mtrain: [0mFast image access вњ… (ping: 0.0В±0.0 ms, read: 1719.4В±794.0 MB/s, size: 8.1 KB)
[K[34m[1mtrain: [0mScanning /home/nurlykhan/Diploms/bottleDetect/data/raw/train... 702 images, 0 corrupt: 100% в”Ѓв”Ѓв”Ѓв”Ѓв”Ѓв”Ѓв”Ѓв”Ѓв”Ѓв”Ѓв”Ѓв”Ѓ 702/702 368.1Mit/s 0.0s
…
.0, warmup_momentum=0.8, weight_decay=0.0005, workers=8, workspace=None
[34m[1mtrain:[0m /home/nurlykhan/Diploms/bottleDetect/data/raw/train... found 702 images in 4 classes вњ… 
[34m[1mval:[0m /home/nurlykhan/Diploms/bottleDetect/data/raw/valid... found 100 images in 4 classes вњ… 
[34m[1mtest:[0m /home/nurlykhan/Diploms/bottleDetect/data/raw/test... found 50 images in 4 classes вњ… 
Overriding model.yaml nc=80 with nc=4

                   from  n    params  module                                       arguments                     
  0                  -1  1      1856  ultralytics.nn.modules.conv.Conv             [3, 64, 3, 2]                 
  1                  -1  1     73984  ultralytics.nn.modules.conv.Conv             [64, 128, 3, 2]               
  2                  -1  1    111872  ultralytics.nn.modules.block.C3k2            [128, 256, 1, True, 0.25]     
  3                  -1  1    590336  ultralytics.nn.modules.conv.Conv             [256, 256, 3, 2]              
  4                  -1  1    444928  ultralytics.nn.modules.block.C3k2            [256, 512, 1, True, 0.25]     
  5                  -1  1   2360320  ultralytics.nn.modules.conv.Conv             [512, 512, 3, 2]              
  6                  -1  1   1380352  ultralytics.nn.modules.block.C3k2            [512, 512, 1, True]           
  7                  -1  1   2360320  ultralytics.nn.modules.conv.Conv             [512, 512, 3, 2]              
  8                  -1  1   1380352  ultralytics.nn.modules.block.C3k2            [512, 512, 1, True]           
  9                  -1  1    990976  ultralytics.nn.modules.block.C2PSA           [512, 512, 1]                 
 10                  -1  1    663044  ultralytics.nn.modules.head.Classify         [512, 4]                      
YOLO11m-cls summary: 106 layers, 10,358,340 parameters, 10,358,340 gradients, 39.6 GFLOPs
Transferred 294/296 items from pretrained weights
[34m[1mAMP: [0mrunning Automatic Mixed Precision (AMP) checks...
[34m[1mAMP: [0mchecks passed вњ…
[34m[1mtrain: [0mFast image access вњ… (ping: 0.0В±0.0 ms, read: 1651.1В±734.2 MB/s, size: 8.1 KB)
[K[34m[1mtrain: [0mScanning /home/nurlykhan/Diploms/bottleDetect/data/raw/train... 702 images, 0 corrupt: 100% в”Ѓв”Ѓв”Ѓв”Ѓв”Ѓв”Ѓв”Ѓв”Ѓв”Ѓв”Ѓв”Ѓв”Ѓ 702/702 226.5Mit/s 0.0s
…
, warmup_momentum=0.8, weight_decay=0.0005, workers=8, workspace=None
[34m[1mtrain:[0m /home/nurlykhan/Diploms/bottleDetect/data/raw/train... found 702 images in 4 classes вњ… 
[34m[1mval:[0m /home/nurlykhan/Diploms/bottleDetect/data/raw/valid... found 100 images in 4 classes вњ… 
[34m[1mtest:[0m /home/nurlykhan/Diploms/bottleDetect/data/raw/test... found 50 images in 4 classes вњ… 
Overriding model.yaml nc=1000 with nc=4

                   from  n    params  module                                       arguments                     
  0                  -1  1      1856  ultralytics.nn.modules.conv.Conv             [3, 64, 3, 2]                 
  1                  -1  1     73984  ultralytics.nn.modules.conv.Conv             [64, 128, 3, 2]               
  2                  -1  3    279808  ultralytics.nn.modules.block.C2f             [128, 128, 3, True]           
  3                  -1  1    295424  ultralytics.nn.modules.conv.Conv             [128, 256, 3, 2]              
  4                  -1  6   2101248  ultralytics.nn.modules.block.C2f             [256, 256, 6, True]           
  5                  -1  1   1180672  ultralytics.nn.modules.conv.Conv             [256, 512, 3, 2]              
  6                  -1  6   8396800  ultralytics.nn.modules.block.C2f             [512, 512, 6, True]           
  7                  -1  1   4720640  ultralytics.nn.modules.conv.Conv             [512, 1024, 3, 2]             
  8                  -1  3  17836032  ultralytics.nn.modules.block.C2f             [1024, 1024, 3, True]         
  9                  -1  1   1318404  ultralytics.nn.modules.head.Classify         [1024, 4]                     
YOLOv8l-cls summary: 104 layers, 36,204,868 parameters, 36,204,868 gradients, 99.1 GFLOPs
Transferred 300/302 items from pretrained weights
[34m[1mAMP: [0mrunning Automatic Mixed Precision (AMP) checks...
[34m[1mAMP: [0mchecks passed вњ…
[34m[1mtrain: [0mFast image access вњ… (ping: 0.0В±0.0 ms, read: 1528.5В±773.8 MB/s, size: 8.1 KB)
[K[34m[1mtrain: [0mScanning /home/nurlykhan/Diploms/bottleDetect/data/raw/train... 702 images, 0 corrupt: 100% в”Ѓв”Ѓв”Ѓв”Ѓв”Ѓв”Ѓв”Ѓв”Ѓв”Ѓв”Ѓв”Ѓв”Ѓ 702/702 327.2Mit/s 0.0s
…
